mnist_10_digits_recongizer/assets/mnist_model.tflite (tflite, 409028 bytes, 4 tensors)

arith.constant f4 [10, 128]
000000 54 24 e4 3c 8a 9e 17 3e 4c c7 db bc 8f ab 34 bf
       0.027849354 0.14806572 -0.02682843 -0.7057428
000010 d9 cd a3 3d 4d e6 7d be e1 b1 0e bc 91 cf 88 be
       0.07998247 -0.24794884 -0.008709402 -0.2672086
000020 e9 01 5f bf e1 6f 41 be f5 cc 01 be 06 f9 88 bd
       -0.8711229 -0.18890335 -0.12675841 -0.066881225
000030 ee 89 e8 be e3 d0 f9 bc 99 db c4 be 02 db de bd
       -0.45417732 -0.030495113 -0.3844879 -0.10881616
000040 c0 41 f6 3d aa 01 d4 be af a9 21 3c 7d 6f 03 3e
       0.120242596 -0.4140752 0.009867116 0.12835498
000050 09 be 43 bc 99 3a 6a 3d 40 3e 05 bf 1d a2 87 be
       -0.011947163 0.05718479 -0.5204811 -0.2649087
000060 8e f9 c4 3e 8f ff 5c 3e 56 2d ae be d3 9b 5c 3e
       0.38471645 0.21581863 -0.34018964 0.21543817
000070 3d a6 bf 3e c2 77 d7 3d 85 09 8d be 5e d5 1e 3e
       0.37431517 0.10520889 -0.27546325 0.1551108
000080 5b 9b 60 bd 52 3f 4e bc bb f1 13 bf 3c 3c 57 be
       -0.05483566 -0.012588339 -0.57790726 -0.21019071
000090 c1 87 0b bd ed 4c 6a 3e 13 35 b6 3e 3e af 61 3c
       -0.034065012 0.22880907 0.35587367 0.013774691
0000a0 20 09 52 3e 8b 23 3e bd c1 a5 57 bd cc fb c6 3d
       0.20511293 -0.046420615 -0.05264831 0.09715995
0000b0 81 f5 00 bd c6 47 9e be d5 c1 10 be bb 4f 88 be
       -0.03148413 -0.30914134 -0.14136441 -0.2662333
0000c0 db cd 50 be 07 6e a8 3d c9 35 fc be c7 17 ba bd
       -0.20391028 0.08224111 -0.49259785 -0.090865664
0000d0 14 e4 29 be 84 fe 19 3e 51 fc 72 3e dc bb 52 3d
       -0.16590911 0.15038496 0.23729064 0.051448688
0000e0 3c fc 41 3e 09 ac 01 3e 89 4b 29 bf 60 9a 83 be
       0.18943876 0.12663282 -0.6613088 -0.25703716
0000f0 bb e4 70 3e d1 b1 7d bd 96 52 6f 3e 6c 97 86 3d
       0.23524754 -0.061937157 0.23371348 0.0657185
000100 4d 11 0a 3e ba 9c df 3d 44 7b da bd ce 00 d9 3d
       0.13483162 0.10918565 -0.10668042 0.105958566
000110 ed 21 66 bc d1 d2 5c 3e 05 c7 44 3e 0e 36 05 bf
       -0.0140461745 0.21564795 0.19216545 -0.52035606
000120 70 d1 ad 3d d4 4d ff 3d f1 85 da be 9c d9 16 bf
       0.08487213 0.124660164 -0.42680314 -0.58925796
000130 bf c3 31 bd e0 da 1d 3e 7b 58 9d be 5b 47 49 3e
       -0.04339957 0.15415525 -0.30731568 0.19656126
000140 98 83 90 3e fc 8c 04 be e1 97 80 3e 09 f6 78 be
       0.28225398 -0.12944406 0.25115874 -0.24312605
000150 6f a5 dd bd d5 5a 59 3e 65 e8 9b be eb 27 bf be
       -0.108225696 0.21226056 -0.3045074 -0.37335142
000160 d1 a1 81 3e e1 37 69 be 9c 7e c1 3d 3e 99 87 be
       0.2531877 -0.22775222 0.09447977 -0.26484102
000170 8e 02 93 bd 59 3d c0 be 94 34 1d be c4 0a 90 3e
       -0.07178222 -0.37546805 -0.15352088 0.28133214
000180 22 c9 96 be 2f de a2 3e 62 02 44 be 8b ec be be
       -0.29450327 0.31810138 -0.19141534 -0.37289843
000190 42 a4 27 3b e3 51 90 be 23 38 3c 3e ad f8 c0 3d
       0.0025580083 -0.28187475 0.1838079 0.09422431
0001a0 e5 8a 13 3e d5 ca ec 3d 77 43 fb bb f3 11 75 3d
       0.14408453 0.11562125 -0.0076679545 0.05983157
0001b0 00 04 a4 3d bb 64 dd be a0 33 bc be 02 f0 4f be
       0.080085754 -0.43240914 -0.36758137 -0.203064
0001c0 d5 66 21 be 74 88 3c bd 40 7e 07 be 06 93 1d bf
       -0.15761884 -0.04602857 -0.13231754 -0.61552465
0001d0 42 cd 3a 3e 87 b6 1b 3e b8 9f 4e 3e 2f ab af bd
       0.18242362 0.15206347 0.20178115 -0.085775726
0001e0 91 cf 87 3e 30 d1 dc be 61 4c 0a 3e 86 b0 4f be
       0.26525548 -0.43128347 0.13505699 -0.20282182
0001f0 5f 60 c5 3e 9c 2f 82 be 1e 41 74 3e f4 ca 76 be
       0.38550088 -0.25426948 0.23852965 -0.24100858
000200 0a 93 9c 3e 4e 4e e3 3e 3e a0 16 3e a2 6e 3f 3e
       0.30580932 0.4439568 0.14709565 0.18694547
000210 c9 6e 32 3e 0d dd 0a bd 69 0b 42 3e 79 39 dc 3e
       0.17425074 -0.033902217 0.18949665 0.43012598
000220 70 e6 dc be 32 d7 ee 3d 35 5c 39 be 3a 4f 47 be
       -0.4314456 0.11662139 -0.1810158 -0.19463816
000230 d6 4d c1 3c 0f e7 05 3e 1a da ab 3d 0c d3 80 3d
       0.023596685 0.13076423 0.08391209 0.06290254
000240 8f 54 de be 66 f7 10 3e 2b ce ff be b5 75 1f 3f
       -0.43423888 0.14156875 -0.4996198 0.6228898
000250 5e 85 8e be c1 f6 c5 be 41 d4 64 ba a7 ec 53 3e
       -0.27836126 -0.3866482 -0.0008729138 0.20695744
000260 e1 44 a2 3e 43 2a 43 3e 6c 4d de be 65 7d 9e bd
       0.31693175 0.1905909 -0.43418443 -0.07738761
000270 2a f9 6e be e2 eb 89 be 53 8f 89 3d 23 1c 5d be
       -0.23337236 -0.26937777 0.0671679 -0.21592765
000280 9e 10 a2 be 8f 5a 0c 3e 37 34 b3 be 46 d0 eb 3d
       -0.31653303 0.1370642 -0.35000774 0.115143344
000290 6a c9 0f be f7 14 9a bd 51 10 f7 be ff 5e 4e 3e
       -0.14041677 -0.0752353 -0.48254636 0.20153426
0002a0 6d bf b0 be 85 91 4e 3e ab 8e bf bd fe 33 0a 3f
       -0.34521046 0.20172699 -0.09353384 0.53985584
0002b0 27 58 ba 3e 3b 5d 9f be d2 23 bb 3a 18 bb a2 be
       0.3639538 -0.31125817 0.0014277643 -0.31783366
0002c0 f0 0f cb 3d 99 99 b9 be d7 c4 83 be 30 68 cb be
       0.09915149 -0.36249998 -0.25736114 -0.39727926
0002d0 c1 55 ea be 4c 90 a0 be 8d 02 9e be 48 94 b5 3e
       -0.4576855 -0.3136009 -0.3086132 0.35464692
0002e0 d9 6f 9e be 0a ec a2 be 86 b2 1f 3e 03 69 ad 3d
       -0.30944708 -0.3182071 0.15595445 0.08467295
0002f0 f4 cb 05 bf da d4 86 be 21 8f 43 3c 9b 64 90 be
       -0.5226433 -0.26334268 0.01193598 -0.28201756
000300 c2 24 96 be 85 86 96 bd 16 29 02 3e 98 b2 ce be
       -0.2932492 -0.07349876 0.12710986 -0.4037063
000310 4a cb a2 3d 72 7a 03 bf 49 d7 af 3b a8 9a bc 3e
       0.079489306 -0.5135871 0.00536624 0.36836743
000320 87 e2 ec be df 8b 88 be 1f 6a 87 3e 00 a6 ee be
       -0.46266577 -0.26669213 0.2644815 -0.46611023
000330 dc f4 76 3e 3e 96 c8 bd bf 70 f6 3e bc 8d ba be
       0.24116844 -0.097942814 0.48132893 -0.3643626
000340 c4 a3 ba be 2e 82 83 bd 33 ea ee be ad ca 9d 3e
       -0.36453068 -0.06421314 -0.46663055 0.30818692
000350 bb df 8a 3d e3 ff bc be f0 55 3f 3f eb 4f e4 be
       0.067809545 -0.36913976 0.74740505 -0.44592223
000360 81 a2 07 3e b3 36 22 3d 0c 41 26 3e 4f dc 10 bf
       0.13245584 0.039602946 0.16235751 -0.56586164
000370 35 f5 09 be 45 b3 2a 3e 8e dd 84 3d e8 01 86 3e
       -0.13472445 0.16669948 0.06487571 0.2617333
000380 7f af 03 3e dd aa 8a 3e 93 1e 7b 3e 55 9c 97 3d
       0.12859915 0.27083483 0.24523382 0.07402865
000390 60 bb e3 3c 8c aa ec 3c bb 9a 7b be c8 58 0b 3e
       0.027799308 0.028889917 -0.24570744 0.13608086
0003a0 43 ec a3 3e 01 2f d1 3d 9d e3 c7 be c6 b5 50 be
       0.3201619 0.102140434 -0.39040843 -0.20381841
0003b0 95 dd ac be 2c 44 d1 3c e4 0f fe 3d ce ea af 3d
       -0.33762804 0.025545202 0.12405375 0.08589707
0003c0 0c c6 52 3d 77 2c 16 bf 62 b2 b7 3d 34 bc 5d 3e
       0.051458403 -0.586616 0.08969571 0.21653825
0003d0 4e 40 c1 bd 70 10 a3 bd 63 5d 21 be a1 f0 30 3d
       -0.09436093 -0.079621196 -0.1575828 0.04319823
0003e0 b1 e1 68 3e cd 9d ba bd 2d 58 de 3d 05 fc c8 3d
       0.22742344 -0.09112129 0.10856662 0.09813694
0003f0 44 a1 e5 bd 65 58 93 3d 92 9b 2d 3e aa b7 90 3e
       -0.112123996 0.07194594 0.16953877 0.28265125

arith.constant1 f4 [128, 784]
000000 1e a4 9c bc 4e 57 47 3d bb f8 37 bd d8 ab 28 bc
       -0.019121226 0.048667245 -0.044914942 -0.010294877
000010 d0 8b ea bb 40 c2 c3 bc a2 5d 55 3d 2e ab 6b bd
       -0.00715778 -0.023896337 0.05209125 -0.057536297
000020 e4 87 7c bd a2 30 e9 bc a4 f9 95 bd cd 6b 3b bd
       -0.061653033 -0.028465573 -0.07323006 -0.045757104
000030 42 72 05 3c eb 33 8f 3c 17 38 be bc e8 a9 b5 3c
       0.008144917 0.017480811 -0.023220105 0.022175744
000040 92 31 a0 bc 1e a3 1e bd 60 73 59 bd cb 91 80 bd
       -0.019554887 -0.03872978 -0.053088546 -0.06277808
000050 4f 5d 6e bd 52 41 54 bd 42 72 27 bd 3e 97 68 3d
       -0.058194455 -0.051820107 -0.04088045 0.05678486
000060 1c 0c 8f bc 2b b3 9e bd c3 9c 87 bd c0 22 2d bb
       -0.017461829 -0.07749017 -0.06621697 -0.0026418418
000070 b4 36 b8 3c c8 f8 cf bc af 36 a0 bd 9e 09 51 3d
       0.022487022 -0.025387183 -0.0782293 0.051034562
000080 6b c7 0e 3d a1 42 c5 bd 05 6d 33 bd 4c 74 df bc
       0.03485815 -0.09631849 -0.04380514 -0.027277134
000090 58 3a d1 bd fa 2d 05 bd 9f 3b c4 bd 27 c0 11 be
       -0.10216206 -0.03251455 -0.09581684 -0.14233457
0000a0 31 19 5d be b0 15 ba 3c 86 52 b9 bc 10 38 b5 bd
       -0.21591641 0.02271542 -0.022622358 -0.08848584
0000b0 aa 5c a2 bd 62 ae a7 3c a0 51 a0 bd fe 8c de bd
       -0.079278305 0.020468894 -0.07828069 -0.10866736
0000c0 1c 95 0d be 2f d1 7f bd 8b 34 2e bd ab e5 03 bd
       -0.13826412 -0.062455352 -0.042530578 -0.03220145
0000d0 32 47 c4 bc 22 9e b4 bc a0 6e 75 3c 82 ed 71 3d
       -0.02395973 -0.02204806 0.014979988 0.059064396
0000e0 ca f8 7b bd 77 02 8e 3d df 80 4c 3c b8 b9 aa bd
       -0.06151656 0.06934064 0.012481897 -0.08336204
0000f0 d4 9b c0 bd 4e 6a c0 bd 52 c4 41 be e5 43 b0 bd
       -0.09404722 -0.09395276 -0.18922547 -0.086067
000100 1c 91 1f be d9 ac df bd f3 61 c9 bd 6e 17 0c be
       -0.15582699 -0.1092164 -0.098331355 -0.13680813
000110 a7 cb 08 be 29 e0 36 bd 00 b4 bb 3d 9d 5a 3b 3e
       -0.13358937 -0.04464737 0.09165192 0.18296285
000120 54 9f d7 3d 77 c2 f0 3d c1 4e 1c bd 80 9d 12 bd
       0.10528436 0.11755841 -0.038161043 -0.035794735
000130 aa c1 c6 3d cc 55 a2 3d 72 00 87 bd 49 25 df bd
       0.09704907 0.07926521 -0.06591882 -0.108957835
000140 ae 2b 0b 3e c8 e1 d2 bc 10 f4 fb 3b 90 03 6f 3c
       0.13590881 -0.025742427 0.0076890066 0.014588252
000150 70 be b8 3c 50 34 a4 bc af 5a 1c bd 4a 2c 65 be
       0.022551745 -0.020044476 -0.03817242 -0.22380176
000160 66 7a 86 bd 1f 67 8e bd 61 ec b1 bd a7 41 1a be
       -0.065663144 -0.069532625 -0.08687664 -0.15064107
000170 3a 57 3b be 65 88 47 be eb b0 0f bd 3b bf 1b 3d
       -0.18294993 -0.19485624 -0.03508083 0.03802417
000180 66 86 0e be cc 15 09 be 67 42 ae bd c3 86 be bc
       -0.13918456 -0.13387221 -0.08508759 -0.023257619
000190 09 ca ba 3d 51 c9 04 3e 1d 0e d1 3c 31 1b 1b be
       0.091205664 0.12967421 0.025519425 -0.15147091
0001a0 6e de 4c be e7 f9 dd 3b 7a fc c0 3d 87 23 9e 3d
       -0.20006725 0.0067741754 0.09423156 0.0772162
0001b0 c2 bb 93 3c 0d 8d 18 3e 7d 34 e6 bc 00 90 fd b7
       0.018033866 0.14897557 -0.0281012 -3.0227005e-05
0001c0 60 cc eb bb 51 db 5c bc a9 b5 ce 3d 72 c2 4f be
       -0.0071959943 -0.0134800235 0.10093243 -0.20289019
0001d0 2d 2e 0b 3c 07 22 fb bd fb 87 07 be 05 57 3c bd
       0.008494896 -0.122623496 -0.13235466 -0.045981426
0001e0 a2 9f 94 bc 63 a7 9c 3d 07 53 37 3b 59 c5 d6 bc
       -0.018142525 0.07649114 0.0027973072 -0.02621715
0001f0 2f 64 00 be 77 d3 84 bd 60 20 4d 3d dd 92 9b bc
       -0.12538217 -0.06485646 0.050079703 -0.018990928
000200 44 2f 56 3d 6f 53 b0 3d cd 71 7e bc c5 b4 1a 3c
       0.05229117 0.08609664 -0.015530062 0.009442513
000210 56 6c 95 bc 74 b2 91 3d 0a d2 fb 3d a9 7e 2a 3d
       -0.018240135 0.07114115 0.12295921 0.0416247
000220 e0 d7 c0 bd 12 dc 24 3c 97 dd 09 3e 43 04 40 3c
       -0.09416175 0.0100622345 0.13463436 0.011719766
000230 90 ab d7 3b 30 56 3a bc 4e 37 85 3d 4c 0c 8f bd
       0.006581731 -0.011373088 0.06504689 -0.06984767
000240 b9 81 d2 bc e4 fd 09 3d 02 e1 56 3c 30 b0 58 3d
       -0.025696622 0.033689395 0.0131151695 0.0529024
000250 39 45 3d 3d dd 50 d1 bc 33 c1 f3 bd ff 4b 05 be
       0.046208594 -0.025551254 -0.11902084 -0.13017271
000260 db 83 35 be 7d cc 1a be bf 9e c4 bc f6 bc 5a bd
       -0.1772608 -0.15117069 -0.024001477 -0.053402863
000270 44 5e 28 3d 74 0a b1 3d c6 d3 4b 3e d1 90 46 3e
       0.041105524 0.08644572 0.19905004 0.1939118
000280 bd c4 e8 3d be 73 8c ba eb 65 00 3e 74 e1 1e 3e
       0.1136565 -0.0010715646 0.12538879 0.15515691
000290 d3 57 05 3e fa f1 05 3e 37 eb 0d bc c6 ca 1d bd
       0.13021784 0.13080588 -0.008662037 -0.038523458
0002a0 9a ad 6f 3d 76 e9 64 3d 0d ee b0 bd 0a e1 5f 3d
       0.05851517 0.05588671 -0.086391546 0.054657973
0002b0 dc 51 62 3d cb 79 7e 3c 6a 4e 32 3c 3e df 0d 3e
       0.05525385 0.015531967 0.010882953 0.13854691
0002c0 ff dd 35 3d 30 a3 f9 bc f5 1d 11 be 3e d9 fe bd
       0.044401165 -0.030473322 -0.14171584 -0.124437794
0002d0 d5 d9 3d bd b9 57 a8 bd f5 db c5 bd 14 29 21 be
       -0.04635032 -0.08219857 -0.09661094 -0.15738326
0002e0 8f 58 71 bd bd 03 22 3e 8b c4 7b 3e b2 bf 35 3e
       -0.058922347 0.15821739 0.24586694 0.17748907
0002f0 cc 41 49 3e 9d 11 a2 3d c2 93 3e 3d f1 c7 d8 3d
       0.19654006 0.07913516 0.04652763 0.10585011
000300 da 8d af bd 42 d3 b8 bd 0f 6c 74 3c cd 5a 1b 3e
       -0.08571978 -0.09024669 0.014918341 0.15171356
000310 73 7e 30 3d 3a 94 21 3e e5 e1 22 be 1a 2f 97 3d
       0.04308934 0.157792 -0.15906484 0.07382031
000320 55 23 82 3d 24 49 cd 3d 8d 25 f2 3d e7 c0 f8 bc
       0.06354395 0.10023716 0.118235685 -0.03036542
000330 53 b1 fa bd 4a ea ad bd 4e a0 4c 3c 44 e0 a6 bd
       -0.12240853 -0.08491953 0.0124893915 -0.08148244
000340 18 a0 99 3d df f1 fd b9 03 67 7e bd e4 1a 8a be
       0.075012386 -0.00048436128 -0.06210996 -0.2697364
000350 3f 0b 67 be f8 93 26 3d 14 da a7 3e f6 39 c4 3e
       -0.22562884 0.040668458 0.32783568 0.3832547
000360 bc 03 4a 3e 28 65 80 3d c4 f0 5e 3d 0e 8f 46 bc
       0.19727987 0.06269294 0.05442883 -0.012119068
000370 63 e3 8c 3d 94 3e 39 be 13 ee 85 bd 85 7b e0 3d
       0.06879308 -0.18090278 -0.0653955 0.109610595
000380 e7 8a 88 bd eb 59 2e 3c e0 9d 32 3d eb a2 98 bc
       -0.066671185 0.010641555 0.043607593 -0.018632373
000390 13 c8 0a 3e d0 de 11 3c 9f 69 3a 3d 00 c2 cf bd
       0.13552885 0.00890322 0.045510884 -0.101444244
0003a0 a1 b8 0c 3d 12 32 5e bd bd 51 1b bd b8 c7 d1 3d
       0.034355763 -0.05424697 -0.03791975 0.102431715
0003b0 58 c3 f1 bb 48 df 14 be a9 ae 55 be ce f8 b3 be
       -0.007378023 -0.145383 -0.20867409 -0.3515076
0003c0 4a 74 65 be 27 f0 a8 3d 72 d4 97 3e 5a db ba 3e
       -0.22407642 0.082489304 0.2965427 0.36495477
0003d0 3d 11 3e 3e 0c 6b 52 3d 98 fa 57 3d 53 70 d9 bd
       0.18561263 0.05137162 0.05272922 -0.10617127
0003e0 be 17 1d be a5 46 44 be ff da d8 bd d8 1e 11 be
       -0.15341088 -0.19167574 -0.10588645 -0.14171922
0003f0 7e 90 5b 3d 6a 2a 48 be c7 53 31 3d 21 70 a4 3d
       0.053604595 -0.1954743 0.043292787 0.080291994

arith.constant2 f4 [10]
000000 b2 2f 33 be d5 e6 d2 bc 17 8c 3f bd 25 ba 7a bd
       -0.17498663 -0.025744835 -0.04676446 -0.061212678
000010 28 1d fa 3d 3e 25 11 3e 0c 78 dc bc a3 c9 0f 3a
       0.12212592 0.14174363 -0.026912712 0.00054850633
000020 7e 75 ba 3d 35 06 bb bd
       0.09104441 -0.09132043

arith.constant3 f4 [128]
000000 14 10 21 be ff cf ac 3d c8 af 7e bc cb ab 9e 3d
       -0.1572879 0.084381096 -0.015544839 0.07747611
000010 25 50 80 b9 55 11 36 3e bd f5 6d bd 54 14 9c 3e
       -0.00024473775 0.17780049 -0.058095682 0.3048426
000020 fd d3 38 3e 1c 1c 3b bd 79 ec 8b 3d 1e 6f c6 3d
       0.18049617 -0.045681104 0.06832213 0.09689163
000030 5f a7 d8 3d d4 0d 9c 3d e5 cf c4 bd b8 60 87 3d
       0.105787985 0.07619825 -0.09609965 0.066102445
000040 b3 94 d4 bd 34 b4 b1 bc 91 51 20 3c 00 34 6e 3e
       -0.103799246 -0.021692373 0.009785072 0.23262024
000050 10 a8 98 bd 7d e5 f7 3d 9f ad a7 3d 4d 61 40 3e
       -0.074539304 0.12104318 0.081874125 0.18787117
000060 b6 46 49 bc d4 33 31 be 77 e1 54 3d 78 e8 8f 3c
       -0.012284925 -0.17304927 0.051972833 0.017566904
000070 68 90 39 be 53 13 26 3d 9d b6 5a bd 3d 7f d4 bd
       -0.18121493 0.040545773 -0.05339681 -0.10375831
000080 41 54 ea b9 87 8e 3c bd 18 c5 88 bd 83 e5 18 3e
       -0.00044694732 -0.046034362 -0.06678218 0.14931302
000090 8f 76 65 bd f2 d2 e3 bd a6 79 a0 3c ed 9c c1 bd
       -0.05602127 -0.11124219 0.019589256 -0.09453759
0000a0 d9 f1 b7 3c 84 72 f4 3d 4a bf 2d bd 1f b1 82 bd
       0.02245419 0.119359046 -0.042418756 -0.063814394
0000b0 b9 72 e0 3d 60 72 b2 bb fc 8c 12 be 3f 0c 84 bd
       0.109593816 -0.0054457635 -0.14311594 -0.06447648
0000c0 a2 b2 8a bc 40 84 83 bd c1 a6 ec 3d 01 31 84 3d
       -0.016930882 -0.06421709 0.11555243 0.06454659
0000d0 56 31 44 bc e7 a0 d8 bd 0f 4c 22 3e 34 ce bb bd
       -0.011974653 -0.10577565 0.15849327 -0.091701895
0000e0 51 cd b3 3b 36 99 c2 3c a2 c4 72 3e 90 be d9 3d
       0.005487122 0.023754697 0.23707822 0.1063205
0000f0 ee bd 24 3e c0 4b f6 3d 8e 71 ca bc af 39 9e 3c
       0.16088077 0.12026167 -0.02471235 0.019314615
000100 d8 c0 d7 3d 2f 56 ad bd 88 af 46 bd a4 9f 4b 3d
       0.10534829 -0.08463704 -0.048507243 0.049712792
000110 05 35 85 3d 7d e3 46 3d 5d 39 c5 bd 88 17 5a 3d
       0.06504253 0.048556793 -0.09630082 0.053245097
000120 c2 d5 cb 3d 1b 50 d2 3d af c7 b8 bc 30 9b 5a bb
       0.099528804 0.10269185 -0.022556154 -0.003335666
000130 00 5d cd bc 9e 50 fc 3a 4e 6b 89 3d ed 51 df bc
       -0.02506876 0.00192501 0.0670992 -0.027260745
000140 a2 48 db bd 35 51 6f 3e 81 86 86 3c 86 d7 07 3d
       -0.10707213 0.23370822 0.016421558 0.033164524
000150 c8 5d f6 3c 02 18 36 bd 69 f0 61 3d 03 2a f5 3a
       0.030074015 -0.04445649 0.055160914 0.0018704537
000160 4e c5 a0 3d dc c1 ef 3d f0 eb ec 3d 51 32 0b 3b
       0.07850133 0.117068976 0.11568439 0.0021239708
000170 b7 b1 a0 bd ba 9c 2e 3c 79 a4 77 3d c1 49 e2 bd
       -0.078463964 0.010657484 0.060459588 -0.11049224
000180 0e c8 59 3d 53 a0 9f bd 0c 3e 7a 3d 99 2e 8f 3c
       0.053169303 -0.07794251 0.06109433 0.017478274
000190 cf da 70 bd 8d 8b 68 3c 55 93 98 3b 94 bd 84 bc
       -0.058802422 0.014193428 0.004656235 -0.01620368
0001a0 89 9f 00 3d f9 e6 01 bd bc 96 2d bd fa 1b 48 3c
       0.031402145 -0.031714413 -0.04238008 0.012213701
0001b0 c0 ce c5 3a f3 cf 19 3d 56 c2 2d 3e 93 28 80 3d
       0.0015091524 0.03755183 0.16968665 0.06257739
0001c0 d5 bf b7 3d ac 03 2e bd 98 a4 c9 bb 0f 5b d5 3b
       0.08972136 -0.04248397 -0.0061536543 0.006511099
0001d0 9d bb 02 3d f7 c3 ac bd 52 c4 b8 bc 27 e2 78 3d
       0.031917203 -0.08435815 -0.02255455 0.06076255
0001e0 97 d4 07 bc 02 e1 2c bd 3d c6 a1 bd 89 53 c6 3d
       -0.008290431 -0.04220677 -0.07899139 0.09683902
0001f0 2e f1 65 3d bc b3 5c 3d 3c b4 7b bc 50 d5 08 3d
       0.05613821 0.053882346 -0.015362795 0.033406556
